…
span class="line">9</span><br><span class="line">10</span><br><span class="line">11</span><br><span class="line">12</span><br><span class="line">13</span><br><span class="line">14</span><br><span class="line">15</span><br><span class="line">16</span><br><span class="line">17</span><br><span class="line">18</span><br><span class="line">19</span><br><span class="line">20</span><br><span class="line">21</span><br><span class="line">22</span><br></pre></td><td class="code"><pre><span class="line">[Sequential(</span><br><span class="line">   (0): BasicBlock(</span><br><span class="line">     (conv1): Conv2d(256, 512, kernel_size=(3, 3), stride=(2, 2), padding=(1, 1), bias=False)</span><br><span class="line">     (bn1): BatchNorm2d(512, eps=1e-05, momentum=0.1, affine=True, track_running_stats=True)</span><br><span class="line">     (relu): ReLU(inplace=True)</span><br><span class="line">     (conv2): Conv2d(512, 512, kernel_size=(3, 3), stride=(1, 1), padding=(1, 1), bias=False)</span><br><span class="line">     (bn2): BatchNorm2d(512, eps=1e-05, momentum=0.1, affine=True, track_running_stats=True)</span><br><span class="line">     (downsample): Sequential(</span><br><span class="line">       (0): Conv2d(256, 512, kernel_size=(1, 1), stride=(2, 2), bias=False)</span><br><span class="line">       (1): BatchNorm2d(512, eps=1e-05, momentum=0.1, affine=True, track_running_stats=True)</span><br><span class="line">     )</span><br><span class="line">   )</span><br><span class="line">   (1): BasicBlock(</span><br><span class="line">     (conv1): Conv2d(512, 512, kernel_size=(3, 3), stride=(1, 1), padding=(1, 1), bias=False)</span><br><span class="line">     (bn1): BatchNorm2d(512, eps=1e-05, momentum=0.1, affine=True, track_running_stats=True)</span><br><span class="line">     (relu): ReLU(inplace=True)</span><br><span class="line">     (conv2): Conv2d(512, 512, kernel_size=(3, 3), stride=(1, 1), padding=(1, 1), bias=False)</span><br><span class="line">     (bn2): BatchNorm2d(512, eps=1e-05, momentum=0.1, affine=True, track_running_stats=True)</span><br><span class="line">   )</span><br><span class="line"> ),</span><br><span class="line"> AdaptiveAvgPool2d(output_size=(1, 1)),</span><br><span class="line"> Linear(in_features=512, out_features=1000, bias=True)]</span><br></pre></td></tr></table></figure><p>创建一个全卷积网络实例<code>net</code>：</p><figure class="highlight python"
…
</span><br><span class="line">18</span><br><span class="line">19</span><br><span class="line">20</span><br><span class="line">21</span><br><span class="line">22</span><br><span class="line">23</span><br><span class="line">24</span><br><span class="line">25</span><br><span class="line">26</span><br><span class="line">27</span><br><span class="line">28</span><br><span class="line">29</span><br></pre></td><td class="code"><pre><span class="line">Sequential(</span><br><span class="line">  (0): Sequential(</span><br><span class="line">    (block 0): Sequential(</span><br><span class="line">      (0): Linear(in_features=4, out_features=8, bias=True)</span><br><span class="line">      (1): ReLU()</span><br><span class="line">      (2): Linear(in_features=8, out_features=4, bias=True)</span><br><span class="line">      (3): ReLU()</span><br><span class="line">    )</span><br><span class="line">    (block 1): Sequential(</span><br><span class="line">      (0): Linear(in_features=4, out_features=8, bias=True)</span><br><span class="line">      (1): ReLU()</span><br><span class="line">      (2): Linear(in_features=8, out_features=4, bias=True)</span><br><span class="line">      (3): ReLU()</span><br><span class="line">    )</span><br><span class="line">    (block 2): Sequential(</span><br><span class="line">      (0): Linear(in_features=4, out_features=8, bias=True)</span><br><span class="line">      (1): ReLU()</span><br><span class="line">      (2): Linear(in_features=8, out_features=4, bias=True)</span><br><span class="line">      (3): ReLU()</span><br><span class="line">    )</span><br><span class="line">    (block 3): Sequential(</span><br><span class="line">      (0): Linear(in_features=4, out_features=8, bias=True)</span><br><span class="line">      (1): ReLU()</span><br><span class="line">      (2): Linear(in_features=8, out_features=4, bias=True)</span><br><span class="line">      (3): ReLU()</span><br><span class="line">    )</span><br><span class="line">  )</span><br><span class="line">  (1): Linear(in_features=4, out_features=1, bias=True)</span><br><span class="line">)</span><br></pre></td></tr></table></figure><h3 id="内置初始化"><a href="#内置初始化" class="headerlink" title="内置初始化"></a>内置初始化</h3><figure class="highlight python"><table><tr><td class="gutter"><pre><span class="line">1</span><br><span class="line">2</span><br><span class="line">3</span><br><span class="line">4</span><br><span class="
…
